app/src/main/assets/dpr.tflite (tflite, 753640 bytes, 67 tensors)

batchnorm/mul f4 [1, 16, 1, 1]
00000000: 29a7 853f 0617 c73e 2771 343f c752 223f
00000010: 0c69 033f 8b2c 903e f885 073f ca96 753e
00000020: c1f7 d73d 2545 2b3c 23b2 113f 51d9 843d
00000030: b821 ad3e 1785 b03e 79c3 2a3f cb03 2240
1.0441638 0.38884753 0.70485157 0.6340756 0.51332164 0.28158984 0.52938795 0.23983303
0.10545302 0.010453497 0.5691244 0.06486762 0.33814788 0.3447654 0.6670452 2.5314815

batchnorm/sub f4 [1, 16, 1, 1]
00000000: 9c49 d73e 4a1e e73d 76eb 943e 0607 383f
00000010: 08bc dc3d c434 223f 468c 993e 94b8 b73e
00000020: 4c65 d93e 3e27 8bbc 80c2 cbbd 5d9a 2bbe
00000030: fed4 8e3f 98d5 8abf cac5 b53e b72b 933f
0.42048347 0.11285074 0.29085892 0.71885717 0.107780516 0.63361764 0.29989833 0.3588301
0.42460096 -0.016986486 -0.09949207 -0.16758104 1.115875 -1.0846434 0.35502464 1.1497716

batchnorm_1/mul f4 [1, 16, 1, 1]
00000000: 3f25 b43e ac70 953e 88eb 843f 2fa2 603f
00000010: d029 9a3e 908d c43e c1dc 8a3e 505f 133f
00000020: ec06 9a3e 0a4f 243f f32d 483e 7040 953f
00000030: 61f8 a33e 38b2 6a3e 79d8 443f 7fb1 d13f
0.35184667 0.29187524 1.0384378 0.8774747 0.30110025 0.38389254 0.27121547 0.5756731
0.30083406 0.64183104 0.19548778 1.166029 0.32025436 0.22919548 0.7689281 1.6382293

batchnorm_1/sub f4 [1, 16, 1, 1]
00000000: 7646 eb3f 6724 6cc0 983a 0f3f 9d78 81c0
00000010: e087 3740 a849 3640 4c00 a23f 211b b03e
00000020: 80e3 b9bf e432 41c0 5031 c8bf bc82 e740
00000030: 9dca 9e40 f2a5 20c0 346d 3c3f 918b d740
1.8380878 -3.6897218 0.5594878 -4.0459733 2.8676682 2.8482456 1.2656341 0.34395698
-1.4522552 -3.018731 -1.5640049 7.234709 4.962233 -2.5101285 0.7360413 6.735787

batchnorm_10/mul f4 [1, 16, 1, 1]
00000000: cb11 503f 47ea 4940 5a5a 1d40 773e 6c40
00000010: fc84 bbc0 3e9f 0840 6dfa 3540 4316 8c40
00000020: 153e 2a40 4dfc 8040 b93d 1d40 cf86 a63f
00000030: c174 a340 8a34 b740 d5fc 9340 7dc7 2340
0.8127715 3.1549242 2.4586396 3.6913126 -5.8599834 2.1347194 2.8434098 4.3777175
2.6600392 4.0307984 2.4568923 1.300989 5.108002 5.7251635 4.6246133 2.5590508

batchnorm_10/sub f4 [1, 16, 1, 1]
00000000: 393e 4f40 4b96 01c0 e749 893f 33a2 eebe
00000010: 1896 b7bf 10b2 4040 4839 b63d 1f53 0dc0
00000020: e22d 4a40 ba8a 92be 4b44 ef3f f845 e83f
00000030: b403 8cbf d0e0 1dc0 eb68 96bf 5513 82bf
3.2381728 -2.0247982 1.0725678 -0.46608123 -1.434268 3.010868 0.08897644 -2.2081983
3.1590505 -0.28621465 1.8692716 1.8146353 -1.093863 -2.4668465 -1.1750768 -1.016215

batchnorm_11/mul f4 [1, 16, 1, 1]
00000000: bd65 b13f 3803 e63f 1bf5 da3f 2529 4940
00000010: bba7 723f 8504 ba3f 894f 753f 8239 0e40
00000020: 99b4 813f c29b b33f 73f1 1440 e610 c73f
00000030: ab93 f03f 779c 6d40 8d60 0b40 bb08 763f
1.3859173 1.7969732 1.710605 3.1431363 0.94787186 1.4532629 0.95824486 2.22226
1.0133239 1.4031909 2.327237 1.5552032 1.8795065 3.7126749 2.177768 0.9610707

batchnorm_11/sub f4 [1, 16, 1, 1]
00000000: ce12 7840 3e92 ea3f 40f7 0240 324a f2bf
00000010: 82f0 95c0 1ee3 7cc0 10d2 dbbf 50c9 b640
00000020: 9560 67c0 3446 c2bd 9372 0f40 f19e 2ec0
00000030: 4d42 76bf 22a9 2640 e889 d6c0 5aac 0740
3.8761477 1.832588 2.046341 -1.8928893 -4.685609 -3.9513621 -1.7173481 5.7120743
-3.61527 -0.094860464 2.241368 -2.728451 -0.96194917 2.604073 -6.7043343 2.1198945

batchnorm_2/mul f4 [1, 16, 1, 1]
00000000: be98 8f3d fe90 893d 96a8 783d 3a21 893d
00000010: 9621 3d3b 4645 863d 9621 ba3c 5959 a43c
00000020: 7293 803d a926 843d 2a3d b13d d543 8f3d
00000030: 861c 093d 329a 763d c6d5 673d 24e5 923d
0.07011555 0.06717108 0.06070765 0.066957906 0.002885913 0.065561816 0.022721093 0.020062136
0.06278123 0.06452686 0.08654244 0.0699536 0.033474468 0.060205646 0.056600355 0.07172611

batchnorm_2/sub f4 [1, 16, 1, 1]
00000000: b05f 20be 8086 d03c b49b 443e 0626 24be
00000010: cf2e 34be 3bfe 1dbe a526 3f3e 9cbf 783d
00000020: 9882 c33c f5fb b0be 00a2 dfb8 c00b 133c
00000030: 3abd 9e3e e6e6 6e3e 6839 fcbd 4c50 c5be
-0.15661502 0.02545476 0.19200021 -0.1603013 -0.17595981 -0.15429012 0.18667085 0.060729608
0.023865983 -0.34567228 -0.000106636435 0.008974969 0.31003743 0.23330268 -0.12315637 -0.38537824

batchnorm_3/mul f4 [1, 32, 1, 1]
00000000: 5ea3 113f d246 4b3e daf5 1a3f b5c0 d33e
00000010: 1add 163f c32b f13e ca5f 0b3f 6dc3 1f3f
00000020: c6b4 263f c45e 953e 3c09 0e3f 9fac d23e
00000030: 6d82 b13d f635 2c3f 9487 193f 19b4 d03e
00000040: dfee af3e 6abd 2b3f f9cf c03e 7d18 d33e
00000050: 1ba9 663f e17e 573f 70f9 cc3e c3b6 393f
00000060: 3fd3 343f bc4b 2e3e 824d 453f 1d4f 423f
00000070: ce1a 2e3e 02b5 0a3f 60bb 733f d02a 0c3f
0.56889904 0.19851235 0.6053139 0.4135796 0.58931124 0.471037 0.5444304 0.6240757
0.6511959 0.29173863 0.5548284 0.41147324 0.08667455 0.6726984 0.599725 0.40762404
0.34361932 0.670859 0.3765867 0.4122962 0.90101784 0.84177977 0.40034056 0.725445
0.70634836 0.17021078 0.7707139 0.7590197 0.17002413 0.54182446 0.95207787 0.54752827

batchnorm_3/sub f4 [1, 32, 1, 1]
00000000: 6331 6340 b064 d63f 84ca 9340 7e47 12bf
00000010: c856 183d f042 243d f775 3ac0 9a6a 963e
00000020: 94c2 5a3d 9938 9e3f 5a7a a5bf d30f 763f
00000030: bb90 c83f 60c0 f33c db4d f13f 2a13 c23f
00000040: f84d 7f3e 9e13 9b40 449f 4040 8eb2 d63f
00000050: a538 023f 4393 e53f bc46 cd3e 315a a5c0
00000060: cc37 8cbf 6a51 86be d4c6 5040 f36e 8e3f
00000070: b3bd 063f f095 e53f 7378 0b40 0ad1 3b3f
3.5498893 1.6749477 4.618471 -0.5714034 0.037192136 0.0401029 -2.91345 0.29378206
0.05340822 1.2361022 -1.2927964 0.96117896 1.5669168 0.029754817 1.8851885 1.5162098
0.24932086 4.8461447 3.0097208 1.677324 0.5086768 1.7935566 0.4009303 -5.1672597
-1.0954528 -0.2623399 3.2621355 1.1127609 0.5263321 1.7936382 2.1792266 0.73365843

batchnorm_4/mul f4 [1, 32, 1, 1]
00000000: e54f 273d 14ea 133c 3bc9 c33d f245 af3e
00000010: 462e e53d 7a40 213e 5035 053d e638 833d
00000020: 58ae 103e 8266 673d fa2e 8b3d 2f35 6b3d
00000030: 1b1a fa3c 6336 173d a061 363d 7e00 a43c
00000040: 21ae b43d 67d1 723c 3204 6f3d 4548 973d
00000050: 810a 993c d2db 123e ba19 103d 27d0 e13c
00000060: 1749 453d 7812 253d 566a 0f3e 3408 883d
00000070: 18ff 3b3d 3ded 5b3d f9f4 433d f75d 633c
0.040847678 0.009027977 0.09559866 0.34233052 0.111904666 0.15747252 0.032521546 0.06407337
0.14129007 0.056494243 0.067960694 0.057423767 0.030530026 0.0369171 0.044526696 0.020019766
0.08822275 0.014820433 0.05835361 0.07386831 0.018681766 0.14341667 0.035180785 0.027565075
0.048165407 0.040300816 0.14005408 0.066421896 0.045897573 0.053693045 0.047841046 0.013877383

batchnorm_4/sub f4 [1, 32, 1, 1]
00000000: ef27 613e 4f5a ed3c d05e c23d 699e 993e
00000010: 84ae 27be a01c 38bc 149c 353e f39e 94be
00000020: bdc0 a5bf ea59 f73e 5eae 14bf 1d54 e73e
00000030: 80ea 1cbf bb1f 513e f728 95be f23d 1b3f
00000040: 693a 68be 897b 333f 9bbb 9e3e 7c95 fcbe
00000050: b784 963d bd37 043e 0765 fb3e 9ef1 1cbe
00000060: 4418 d43d 2b65 eb3d d3ff 19bf 54db 8abe
00000070: c3a6 acbd a158 2f3d 4c8f 6c3e f06b 5c3d
0.2198789 0.028973727 0.0949074 0.3000367 -0.16375166 -0.0112372935 0.1773532 -0.2902752
-1.2949444 0.48310786 -0.58078563 0.4518136 -0.6129532 0.2042226 -0.29132816 0.60641396
-0.22678532 0.70110375 0.31002507 -0.49332798 0.07349532 0.12911887 0.49100515 -0.15326545
0.10356191 0.11493906 -0.6015598 -0.2712046 -0.08430245 0.042809132 0.23101538 0.053813875

batchnorm_5/mul f4 [1, 64, 1, 1]
00000000: 61b1 4d3f 2ee5 383f d755 1f3f 05e2 463f
00000010: dcda 133f ebaf 343f 6407 ef3e f4cd b63e
00000020: 57f5 1a3f 2eb3 2a3f ca4e 303f ad90 233f
00000030: 54c0 163f 44eb 3c3f f8e2 173f f62c 0f3f
00000040: b176 033f f54b 883e c0a0 1b3f e9c4 293f
00000050: 3495 173f becf 4e3f 46fa 143f 79e8 e33e
00000060: 11fa 3a3f 8f68 113f 74fc 143f c1fc 2d3f
00000070: 53d2 3f3f 1792 753e a23d f73e 03d5 213f
00000080: 11fd 203f 331d 313f 33d4 253f 1a39 113f
00000090: 4c9d 333f 6360 223f 574c 473f 4792 023f
000000a0: 24d5 b43e 6a83 0f3f 1ed0 1b3f 1664 313f
000000b0: b81f 0e3f 9862 663f dcdb ae3e a1b9 4f3f
000000c0: d7cd 123f 82cc 063f 597e 1b3f 1513 c73e
000000d0: 24be ff3e 946f 353f bae1 a83e 2554 3e3f
000000e0: 66be 3a3f d9d0 453f 97d2 4c3f 1ea5 193f
000000f0: 99da 013f bf5a 103f 6f11 273f 5fb2 1c3f
0.80348784 0.722247 0.62240356 0.7768863 0.5775583 0.7058093 0.46685326 0.35704005
0.6053061 0.66679657 0.6887022 0.6389263 0.5888722 0.73796487 0.593307 0.5592798
0.51352984 0.2662045 0.6079216 0.66316086 0.5921204 0.8078574 0.58194387 0.445133
0.7303782 0.5680017 0.5819771 0.67963797 0.74930304 0.2398151 0.4828921 0.63215655
0.6288615 0.6918518 0.64776915 0.56727755 0.7016189 0.63428324 0.7785086 0.5100445
0.35318863 0.56059897 0.60864437 0.69293344 0.5551715 0.8999419 0.34152114 0.8114262
0.57345337 0.52655804 0.60739666 0.38881746 0.49949753 0.7087338 0.32984716 0.74347144
0.72946775 0.772718 0.80008835 0.60017574 0.5072418 0.5638847 0.65260977 0.6120967

batchnorm_5/sub f4 [1, 64, 1, 1]
00000000: 8652 fcbf e1a9 e5bd 2ca7 263f 38e5 cfbf
00000010: 7994 a9bf e163 4ebf ec8e b6bf a0ad 183f
00000020: 0e1e 6a3f 8c7a e1bf 3890 0ebf fef4 c03f
00000030: af11 dcbf 52ae 82bf 6ac3 ce3e 944d 1ebf
00000040: 6ca3 c63e 2f8f e9be 3990 993f db90 df3f
00000050: 24cc aebf 7718 d93d 3fe2 9e3f 0e00 09c0
00000060: 6cea ac3d fd89 bf3e 58f0 3c3f 7269 2f40
00000070: 3458 cf3f af21 b83e 2adb f0bf bf5d 81be
00000080: 6a10 293f 1a5a af3f 64d2 8f3f 8426 393f
00000090: c734 3fbf fc93 c9be b273 1d3f 584f 3dbf
000000a0: c416 6c3e 28fe 65bc 1668 c33f 2815 acbe
000000b0: a1df 903f 209c 20c0 82e5 973e 6481 693e
000000c0: 2c6f 22be 42be ec3d 83ad 2340 b743 433f
000000d0: f0a7 6f3d c00e 413c e00b ebbd 8505 2b3f
000000e0: 7636 363e 2dcf 943f 3f3d bebe 5651 4b3f
000000f0: 309a 88bf d8c4 763f e6a3 44be cc8d 19bf
-1.9712684 -0.112140425 0.65098834 -1.6241827 -1.3248435 -0.80621153 -1.4262366 0.5963993
0.9145211 -1.7615523 -0.5568881 1.5074766 -1.7192897 -1.0209448 0.40383464 -0.61837125
0.38796556 -0.45617053 1.1997138 1.7466081 -1.3656049 0.106003694 1.2412795 -2.1406283
0.0844315 0.37409964 0.73804235 2.7408109 1.6198792 0.359632 -1.8816884 -0.25266835
0.6604067 1.3699372 1.1236081 0.72324395 -0.74689907 -0.39370716 0.6150466 -0.73949194
0.2305556 -0.014037646 1.526614 -0.3360989 1.1318246 -2.509529 0.29667288 0.22803265
-0.15862721 0.11559726 2.5574653 0.762752 0.058509767 0.011783302 -0.11476874 0.668053
0.17794213 1.1625725 -0.37156102 0.79420984 -1.0672054 0.9639411 -0.19203147 -0.5998199

batchnorm_6/mul f4 [1, 64, 1, 1]
00000000: 8e3a 7a3d 6aec ed3c f21d 8b3d 9163 423d
00000010: 436d 0a3d c42f 223d 559c d33c 7229 ab3b
00000020: 6a59 b43d fa6e 6b3d 6a09 ea3c 8bd6 823d
00000030: 5228 843d 03bc 013d 3e92 ca3c f4e3 bf3d
00000040: 4e85 f23c 7140 853c 1fdb b83d 0a4c a43b
00000050: 5b76 9d3d 79db 6b3d 0f86 e83d aca6 493c
00000060: 79ee 423d 2fce c93d 1ecb 0c3e e48f 6b3c
00000070: 3839 843d de08 a73c 7f3d faba 3380 6b3d
00000080: 06e2 063e 9e4c e03c 3c42 433d 2912 c93c
00000090: 9b56 bb3c 67dd de3d 5723 383d e68b 6f3d
000000a0: 361b 8b3d de91 183d d295 753d 4d19 943d
000000b0: 03f7 e83d e2ca 0c3d 0edf 983d 5ffe d93c
000000c0: 4cda de3c f43e 3a3d a062 033d b6f8 443d
000000d0: 3e3f 893d 6dd1 b93c 59e2 7b3d c3b3 8f3d
000000e0: 7c5d 7d3d 4aab 053d db5a 0b3d a27e 2c3d
000000f0: 97c4 833d f10b 903d c64c 513c c0da e53c
0.061091 0.029043395 0.06792821 0.047458235 0.033795606 0.039596334 0.02583138 0.0052234465
0.08806117 0.057478882 0.028568942 0.06388577 0.06453003 0.031673443 0.024727937 0.093696505
0.02960458 0.01626608 0.09026169 0.0050139474 0.0768859 0.057582352 0.11353695 0.012307804
0.047590706 0.098537795 0.13749358 0.014377568 0.06456226 0.02038997 -0.0019091814 0.057495307
0.13172159 0.027380284 0.047670588 0.024544792 0.022868445 0.10882073 0.044955578 0.058483027
0.067922994 0.037248485 0.059957333 0.07231388 0.11375239 0.03437317 0.07464419 0.026610551
0.027203701 0.045470193 0.032076478 0.04808875 0.067015156 0.02268287 0.06149516 0.07016709
0.06185673 0.032634057 0.034022193 0.042112954 0.06433981 0.07033528 0.012774652 0.02805841

batchnorm_6/sub f4 [1, 64, 1, 1]
00000000: 2715 dabe 49da 943d 9a89 9a3e 0c18 13bd
00000010: 927b 933e ea97 6bbd 7032 b8bd 84b6 e03e
00000020: 5e9d 473e 3822 df3d 2f9e 5bbe 457d e03d
00000030: e77a 823e 2d77 98be 0688 d03d 38e0 d33e
00000040: 0510 03be 8662 373e 01db dc3e 0f23 08be
00000050: a5cc 673e de0b 21be 0c77 973e 5e2b f03d
00000060: ee8b b23d 58f3 bd3e 284c 543f d065 e53d
00000070: 7d7c 10bd ee3d 13be 2266 823e cae0 a63d
00000080: 60d5 263f b82d 443e f21f 533d 9919 943c
00000090: 6ffc 953e 435e 9a3e 340a a53c 3151 273e
000000a0: 8c70 3d3e 060c 353d ac10 353e 7cf2 40bd
000000b0: a0ed be3e a877 7b3d 62f5 ed3d 529b 43be
000000c0: 513a 123e 8ab5 713e a3e1 923e 8cda 25bd
000000d0: ade9 233e 5f44 84be 723a 6cbd f9c4 833e
000000e0: ca2f 3d3e df47 82bc 1075 77be 7c68 50bd
000000f0: d04c 49bf 3b55 06be fbe7 6c3e 1b43 cc3d
-0.42594263 0.07268197 0.30183107 -0.035911605 0.28805214 -0.057517923 -0.08993995 0.43889248
0.19493625 0.108951986 -0.21447061 0.10961393 0.25484392 -0.29778424 0.101821944 0.41382003
-0.1279908 0.17908677 0.43135837 -0.13294624 0.2263666 -0.15727183 0.29583013 0.11727022
0.08718096 0.3709972 0.82928705 0.1120106 -0.03527497 -0.14379093 0.25468546 0.08148344
0.65169334 0.19158065 0.051544137 0.018078612 0.29294154 0.3015004 0.020146467 0.16339566
0.18499964 0.04420092 0.17682141 -0.04710625 0.37290668 0.06139341 0.11619069 -0.19102219
0.14280058 0.23604408 0.28687772 -0.040491626 0.16007109 -0.25833413 -0.057672925 0.25736216
0.18475261 -0.015903411 -0.2416575 -0.050880894 -0.7863283 -0.1311845 0.23135369 0.09973737

batchnorm_7/mul f4 [1, 155, 1, 1]
00000000: 8bea a43e 2542 e13e 1e36 ec3e 1797 893e
00000010: 2594 a03e 1a34 c63e a1cf ac3e a69e e73e
00000020: c350 be3e 596c a53e 73f1 d73e 94d0 033f
00000030: 0371 853e df7e a43e c96f af3e 061e 5a3e
00000040: 1e72 8e3e 9255 5c3e f89d e23e aba6 b73e
00000050: 3e3e d83e 35d0 c63e 94f5 953e 43d1 a73e
00000060: e244 943e 1b4e c93e 1e3e d43e e777 c33e
00000070: d2bc ae3e 9a54 ae3e 7774 df3e c993 ae3e
00000080: 0d3f cb3e a9ec 033f 4bb6 d63e e11a de3e
00000090: 913b 8a3e 8fcd 8e3e 5e9c 803e d1dc 5e3e
000000a0: ca1c df3e 1b14 f03e b911 ea3e 3519 1d3f
000000b0: fa71 ca3e ae14 b73e 46fc e93e 8027 893e
000000c0: 0472 9b3e 1a5a a53e 915d aa3e 2179 c93e
000000d0: f25d 823e bf86 b63e 0eb5 9a3e 78a8 c83e
000000e0: 0d32 0c3f 901d e53e e380 c93e 3fb5 cd3e
000000f0: 9051 e13e 6f4a f83e e7c1 b73e c2d0 f43e
00000100: 4efb c63e 46c2 993e 4a7a d03e 8560 fc3e
00000110: 9268 c53e e708 bc3e f6b9 af3e d2ee a43e
00000120: fd9b ed3e 36b6 c73e 4604 a43e 098b cb3e
00000130: f899 c43e 1bce cb3e 1a70 b83e f0b7 af3e
00000140: eea0 a23e a9a6 a13e ddff bc3e ee42 df3e
00000150: 71e1 e43e d619 403f e552 cc3e a98b a93e
00000160: 3586 ad3e d18d ca3e b91a a33e cab4 b63e
00000170: 6f19 c93e b803 f53e 5033 d53e 80b5 993e
00000180: 59dc d43e c5f4 db3e b4b0 8f3e dc57 c43e
00000190: 0f34 493e 00cb 9d3e da87 d63e 2aa3 ce3e
000001a0: 16d8 d33e 400b da3e 003a ca3e 5549 e13e
000001b0: bfa5 cf3e ddcd db3e d2cd f23e a402 c33e
000001c0: c51e 383f 35f4 023f 79c6 b43e 1420 b43e
000001d0: 3e30 c43e 7d8d f03e cd01 033f d2d4 9c3e
000001e0: a802 a43e b475 aa3e 36e6 883e 2996 d83e
000001f0: 9d97 903e e459 e23e 0286 d43e 91cc c73e
00000200: 7070 ee3e 4236 be3e 5f11 ba3e c7bc b03e
00000210: 1687 b13e 2eab be3e 663c c93e 2da7 da3e
00000220: cd98 cb3e 2acf c63e 7c47 f83e 691d a83e
00000230: 292c 8e3e a20e d53e 7f9f 143f 569d dc3e
00000240: 0e51 cc3e 7d51 983e 8e72 ad3e c53a ff3e
00000250: 20ed b63e a343 a43e 60e4 833e b892 cb3e
00000260: a6d1 c23e e563 d23e f4f9 a63e
0.32210192 0.43995777 0.46135038 0.26873085 0.31363025 0.38711625 0.33752158 0.45238227
0.3717099 0.32309225 0.421764 0.5149014 0.26062784 0.32128045 0.34264973 0.21300516
0.2782144 0.21517017 0.44261146 0.35869345 0.42234987 0.38830724 0.29288924 0.32776842
0.28958803 0.39317402 0.41453642 0.38177416 0.34128433 0.3404892 0.43643543 0.34097126
0.3969654 0.5153299 0.41935953 0.43379882 0.2699857 0.27891204 0.251193 0.21763922
0.43576652 0.4689034 0.45716646 0.6136659 0.39540082 0.35757965 0.45700282 0.2678795
0.30360425 0.32295305 0.3327451 0.39350227 0.254623 0.35649678 0.3021626 0.3919103
0.5476387 0.44749117 0.39356145 0.40177342 0.4400754 0.48494288 0.35890123 0.4781552
0.38863605 0.3003103 0.407183 0.4929239 0.38556343 0.36725542 0.34321564 0.32213455
0.46408072 0.39006203 0.3203451 0.39754513 0.3839872 0.39805683 0.36023027 0.3432002
0.31763405 0.31572464 0.36913958 0.4360575 0.44703248 0.7503942 0.39906994 0.33114365
0.33891454 0.39561322 0.31856325 0.35684806 0.39277217 0.478544 0.4164071 0.30021286
0.41574362 0.42960182 0.280645 0.3834828 0.19648765 0.3081894 0.41900522 0.4035886
0.41375798 0.42586708 0.39497375 0.4400126 0.40556142 0.429305 0.47422653 0.38087952
0.7192195 0.5115388 0.35307673 0.35180724 0.38318056 0.46982947 0.5117462 0.3063112
0.32033277 0.33292925 0.26738137 0.42302063 0.28240672 0.44209206 0.4150849 0.3902326
0.46570158 0.3715077 0.36341378 0.34519026 0.34673375 0.37239975 0.39303893 0.4270567
0.39765015 0.3882993 0.48492038 0.32834938 0.27768067 0.41612726 0.5805587 0.43088788
0.3990559 0.2974967 0.3387646 0.49849525 0.35727787 0.32082853 0.25760174 0.39760375
0.38050574 0.41091838 0.32612574

batchnorm_7/sub f4 [1, 155, 1, 1]
00000000: 60dc 12bf 5259 b1be 40be 01bf ca0b f0be
00000010: 5c9c e53e 7022 2ebe bcb0 a53d 12d1 853e
00000020: 9be4 233f 38f3 9c3e c0c1 ed3c 2483 a53e
00000030: e067 b73e 685e 7e3c aeb2 39be 9c91 863d
00000040: 6a1f 6cbf a807 83bf d0c1 d43c 6089 973c
00000050: 0aea a53e 3650 49bf cd2e 2bbf b58c 913e
00000060: 164d de3d a239 cfbe 60a3 f5bc 1c81 1abf
00000070: 4850 45bf 404c 043e 0e89 a9be ccd1 f9be
00000080: 5c0d c1be cec0 bd3e 0476 7a3e ac14 72bf
00000090: c463 d9be d254 993e 202a 23bf beec 6bbf
000000a0: 7010 e03e 6027 173e a0d9 8e3c 9336 b4bf
000000b0: e068 47bc 38fd 573e 6b97 97bf 1c24 8cbd
000000c0: ccc6 4ebf 0e53 18bf 4a75 ac3e c2a9 96be
000000d0: 3009 833d e946 c3be 0e3f 9ebe bc6f c13d
000000e0: c8f5 833d 4ce1 ddbd 1b31 37bf 9216 833e
000000f0: 173c 46bf 6079 e83e 40b2 a2bd 58d7 d2bd
00000100: 245d 393f 6225 213f b2af d03e c69b 6bbf
00000110: 589c 6cbd 22e1 8b3e 9acb dfbf b88a 87bd
00000120: 2dde 3cbf d23f f7be 7c1f 103f 6c96 403f
00000130: 648a a1bd 7d76 22bf a8fc 653f 0cc1 c33d
00000140: 28c6 ae3d 9f89 10bf d549 00bf 92a6 29bf
00000150: e0d5 a03d 2f66 073f f4a5 a3bd 6021 2bbf
00000160: 5c3a 1a3f 699d 30bf e46c 133f bf14 923e
00000170: ac79 00be e40f debe ab8e 01bf 465a 29bf
00000180: 04b7 a3be a855 c9bd bef0 983e 264a 9dbe
00000190: 4e67 a3be d7ad 65be 3c59 cb3e fc26 86bf
000001a0: 80b9 e53c fb08 cbbf f8c1 06bd a756 88be
000001b0: e0e2 d03d 3642 3cbe 009c 79be 99ef d0bd
000001c0: abe6 1fbf 4124 42bf 15e5 2fbf ca38 5d3f
000001d0: 5550 02bf 2659 99bf e8ad 88bf 7136 773e
000001e0: 1c49 413f 5079 2e3d 4003 61bc 92da 98bf
000001f0: 1089 083e 2a58 c9bf 6c6d 2fbf 6c8a bfbe
00000200: 4c2b 8ebf 9caa 213e df3c 4bbf 00f8 453a
00000210: 72dc 22bf 1b5d b6bf 3349 8fbe 904f 11bf
00000220: fb7e 1ebf 00e0 9cbf 0f50 8dbf 8ba8 24bf
00000230: 1418 51bc 6047 7cbc a228 a2be d41d 473e
00000240: 8fc2 763e 1d58 09bf c0b6 86bc 5c82 e1bf
00000250: 00f4 ecb9 a65b b8bd 2200 44be 5a2c 0d3f
00000260: 338d 0bbf 2125 ddbe 409a 10be
-0.57367516 -0.34638458 -0.50680923 -0.46883994 0.44845855 -0.17005324 0.0809035 0.2613607
0.640207 0.3065431 0.029023051 0.32326615 0.35821438 0.015525438 -0.18134567 0.065707415
-0.92235434 -1.0236712 0.025971323 0.018498123 0.3240512 -0.7863802 -0.6686829 0.28427663
0.10854547 -0.40473658 -0.02998513 -0.60353255 -0.77075624 0.12919712 -0.33112377 -0.48792875
-0.37705505 0.3706116 0.24459082 -0.9456279 -0.42458928 0.29947525 -0.6373615 -0.92158115
0.4376254 0.14761114 0.017437756 -1.4079155 -0.012171 0.21092689 -1.1843084 -0.06842825
-0.8077209 -0.5950173 0.33683234 -0.2942639 0.06398237 -0.38140038 -0.30907482 0.0944514
0.064433634 -0.108339876 -0.71559304 0.25603157 -0.7743544 0.45405102 -0.07944155 -0.1029498
0.72407746 0.62947667 0.40759045 -0.92034566 -0.05776629 0.273202 -1.7484009 -0.066182554
-0.73776513 -0.4829088 0.5629804 0.75229526 -0.07887724 -0.6346205 0.8983865 0.09558305
0.08533889 -0.56459993 -0.5011266 -0.6626979 0.078532934 0.52890295 -0.079906374 -0.668478
0.602453 -0.6899019 0.5758803 0.28531453 -0.12546414 -0.433715 -0.5060832 -0.6615337
-0.31975567 -0.09830791 0.29871172 -0.30720633 -0.31914753 -0.22429596 0.39716518 -1.0480647
0.028042555 -1.5862116 -0.032899827 -0.2662861 0.10199523 -0.18384632 -0.24375916 -0.102019496
-0.62461346 -0.7583657 -0.68708926 0.8641478 -0.50903827 -1.1980331 -1.0678072 0.24141861
0.7550218 0.04259616 -0.013733685 -1.1941702 0.13333535 -1.573003 -0.6852634 -0.37410295
-1.1106963 0.15787739 -0.79389757 0.00075519085 -0.6361762 -1.4247164 -0.27985534 -0.5676203
-0.61912507 -1.2255859 -1.1040057 -0.64319676 -0.012762088 -0.0153978765 -0.31671625 0.19444972
0.24097656 -0.53650075 -0.016444564 -1.7617908 -0.00045195222 -0.090018556 -0.19140676 0.551458
-0.5451233 -0.4319239 -0.14121342

batchnorm_8/mul f4 [1, 155, 1, 1]
00000000: 425d b33e 2372 8f3e bb21 583d 2133 8f3e
00000010: d4cc f23d 3905 803d 0651 533e 20c5 833e
00000020: 176e 763e baa6 9e3e 056b 993e 862b c53e
00000030: 0bfa 423e 945c 913e 5b69 7e3e 3071 8f3e
00000040: fcbd b33e f5c3 973e 19c5 af3e caf4 943e
00000050: 8e71 9b3e b7a7 8c3e 33c8 893e fd97 8e3e
00000060: 8739 2e3e eda5 a43e ac11 a53e 8e5b d13d
00000070: 67dd 193d e4df 0f3e 43cb f33d c975 b03d
00000080: e5ae c33d 6d1e 343d 439a a83d 4c3a 3a3e
00000090: 06da be3d 767c 5f3d ad88 183e 7c6c 293d
000000a0: d70f 4e3c a6ea 983d 3a12 343d 6ca7 a13d
000000b0: bed7 e33c 48c5 5c3d eeeb b63d 8b65 803b
000000c0: 4aef b73c f538 853d a192 cb3d e2cf 483d
000000d0: 2da4 a13c d96b 8e3d bafb af3d 0c95 0c3e
000000e0: ed3c fe3c 88d4 163e f92e e43d 6541 e93d
000000f0: 9ffc 013e 55a0 da3c e490 c63d 1796 393e
00000100: d097 a23d f412 083e af9d 4b3c a0b8 b73d
00000110: 6c79 5e3d 3abe 9d3d 78b9 bc3d 0b1c a33d
00000120: b6e6 f43d c33e 063e aeda 283d be48 e53d
00000130: 8069 e03d 0271 ac3d 56ea 4b3d 2289 3b3d
00000140: b351 553d ad6d 863d 1114 673d 1d28 e83c
00000150: 256e 253d b782 163d 44a6 993d 1bf4 3d3d
00000160: acdc ca3d 238f 2b3d f999 62bd 2650 553b
00000170: 16db 7b3d c477 983d b3d6 2f3b 50ea 283e
00000180: e44e e83d 3bae b13d c39c 1e3d 2ebc eb3d
00000190: 6ca3 0a3e d225 703d 696e b43d 4e22 843d
000001a0: f5ec fc3d 7a2d 963d 82a6 b93d 7298 80bc
000001b0: 1156 ee3c 74c4 c53d 9cab 2f3d f47e e63c
000001c0: 80e8 a53d f5d9 883d c51c 123d 3d95 6c3d
000001d0: 1d76 d03c 6697 063e d5ac 4c3b eef9 b93d
000001e0: 2194 643d 78f6 9f3d 543a e03c cbf6 ba3d
000001f0: aea9 aa3d 31a0 363d ddec 083e 2760 dc3d
00000200: d441 023e 25af 7c3a 39fe 923c 3a71 983d
00000210: 532e c83d cdb0 923d c551 9f3d 2417 893d
00000220: fdb5 9a3d 9536 c83d 6da5 923d 11b4 373e
00000230: 71e5 363e c5f8 023e 35a8 173e 076c 9f3d
00000240: 48f5 8c3d 91a9 cc3d 0190 083e 5461 6e3d
00000250: 4bb7 0a3e d379 a93d a068 8e3d ac54 313d
00000260: 706e 8e3d 606e 8c3d 86ad 243e
0.35032088 0.28016767 0.052766543 0.27968696 0.11855474 0.06250996 0.20636377 0.25736332
0.24065433 0.30986577 0.29964462 0.38509768 0.19040696 0.28390944 0.24844877 0.28016043
0.35105884 0.2964169 0.3433006 0.2909301 0.30360073 0.27471706 0.26910552 0.27850333
0.17014132 0.3215784 0.32240045 0.10222541 0.03756466 0.14050251 0.119040035 0.08616216
0.09554843 0.04397433 0.08232548 0.18186301 0.093189284 0.054562055 0.14895888 0.041363224
0.012577019 0.07466631 0.043962695 0.07893261 0.027812835 0.05389908 0.08931719 0.003918355
0.02245297 0.06505004 0.099400766 0.049026377 0.019731605 0.06954164 0.08592935 0.13728732
0.031034911 0.14729512 0.11141772 0.11389426 0.12694024 0.02668778 0.096956044 0.18123661
0.07939112 0.1328848 0.012427731 0.08970761 0.054315016 0.077022985 0.09215063 0.07964333
0.11958067 0.13109879 0.041224174 0.11195515 0.109576225 0.08419992 0.049784027 0.045785077
0.052079868 0.06563888 0.05641562 0.02833944 0.040388245 0.036745753 0.07502416 0.046375375
0.09905371 0.041884553 -0.05532262 0.0032548993 0.061488234 0.074447185 0.0026830852 0.16495633
0.11343172 0.0867581 0.03872372 0.11510502 0.13538903 0.05862982 0.088101216 0.064518556
0.123498835 0.07332893 0.09064962 -0.015697692 0.029093774 0.09656611 0.04288827 0.028136708
0.081009865 0.06682197 0.035671968 0.057759512 0.025446946 0.13143691 0.0031230946 0.090808734
0.05580533 0.07810682 0.027371563 0.09129103 0.08333145 0.044586364 0.13371606 0.10760527
0.12720424 0.00096391357 0.017943488 0.07443471 0.09774461 0.07162628 0.07779268 0.06693867
0.07554243 0.09776036 0.07160459 0.17939784 0.17860962 0.1279021 0.1481026 0.077842765
0.06882721 0.0999328 0.13336183 0.058198288 0.13546483 0.08275189 0.069535494 0.04329364
0.06954658 0.0685699 0.16081819

batchnorm_8/sub f4 [1, 155, 1, 1]
00000000: e043 673f a656 423f 086f 55bd d9d1 373f
00000010: 249d 703d 1210 243e 6498 183f 6608 6a3f
00000020: c50f 7a3f 3cc8 3c3f 4e82 3d3f 2131 9c3f
00000030: aba7 183f d11a 4d3f 9d19 573f d871 2c3f
00000040: 5ad5 263f 77c0 8b3f cb3b 5e3f c2e8 5b3f
00000050: e054 6f3f ce9e 283f f5b5 5d3f 8139 4f3f
00000060: ccc5 f33e 6087 803f e0e5 a53f 0639 bb3e
00000070: 7933 cf3d 5d6a 8a3f 4e7a 463f e4dd 8bbd
00000080: 1256 023f 126c 89be cf21 e6be dad1 9c3e
00000090: 404a e23d 4297 683e 9735 4f3f b08d 153e
000000a0: 5c99 933e 36b6 363e 508b a1bc ff84 843e
000000b0: 0b31 99bd 7b32 233e 7480 913d eddf b93e
000000c0: 361c f13d 51c8 763e 1684 bd3e 92f6 80be
000000d0: fe79 6abd 5889 333e c861 b93c bfd6 073f
000000e0: a41e 253e 2572 463f 63f0 223f c7be 7b3f
000000f0: e8ff 8b3e d8a8 f2bd 1775 e03e 06fa 5a3f
00000100: 48c6 903e 8b4d c53e bdd2 e63d 55a7 b23e
00000110: 5f1b 11be 3cbc d13e 0a0c 25bf c205 8d3e
00000120: 7649 1c3f 890f 1c3f 1e67 2d3e d40a 0c3f
00000130: 9977 b83e 34cd d13e d861 48be 60fa cbbd
00000140: c669 973d d3e9 413e 7544 cb3d bc90 353e
00000150: 0f75 373e 33e6 5a3e c1b6 b23e 4330 3a3e
00000160: 0cd0 19bf 9cb6 7b3d 2790 22be 9f49 13be
00000170: dfe9 203e f595 0d3e f543 943e 9b93 ad3f
00000180: 06e1 073f ce87 053e aea2 223e eb2a 313f
00000190: 96e1 763f 35aa 963e 708d 9e3e a1da 6b3e
000001a0: 0fa3 ab3e 3903 9f3e fc6f 2f3f c0ee 073b
000001b0: 779d 88be f042 1b3f 0d17 543e cc0d 5fbe
000001c0: 086d 563e 4cf9 9d3d 7a0d 393e a812 043e
000001d0: 8ce5 22be ec1f 493f 0720 273e ccb0 06bf
000001e0: 5cb6 6fbe 62af 853e be91 72bd d2de 063f
000001f0: 403a 7fbd 2472 30bd 86ab 793f b383 af3e
00000200: 808b 493f 4de4 283f a668 83bc 30a1 963e
00000210: ca28 db3e 57fa 743e c2cf 8d3e cb46 143e
00000220: 3f19 c73e 4a99 403e d402 2f3e fe8e 35be
00000230: 0c27 813f a3a8 2c3f 243f 463f e0f6 bc3e
00000240: 2068 ec3d fadf f53e 0887 2f3e 58e5 be3e
00000250: 8963 253f 8a6d c53e 903f 6d3e 95d7 573e
00000260: 4055 0e3e 8cc6 e23d b668 883f
0.90337944 0.75913465 -0.05210784 0.7180458 0.05874361 0.16021755 0.5960753 0.91419065
0.9768031 0.73743033 0.74026954 1.2202493 0.5963084 0.80119044 0.8402346 0.6736121
0.651693 1.0918111 0.86809987 0.85902035 0.93488884 0.65867317 0.8660577 0.8094712
0.47611845 1.0041313 1.2960777 0.36566943 0.101172395 1.081371 0.7753037 -0.06829432
0.5091258 -0.26840264 -0.4494767 0.30628854 0.11049318 0.2271395 0.80941147 0.1460483
0.2882794 0.17842945 -0.01971975 0.25882718 -0.07480057 0.15937226 0.071045786 0.36303654
0.11772959 0.24099852 0.37014836 -0.25188118 -0.057245247 0.17532861 0.022629634 0.5306205
0.1612497 0.7751792 0.6364805 0.9833798 0.27343678 -0.11848611 0.43839332 0.85537755
0.28276277 0.38535723 0.11270664 0.3489329 -0.14170597 0.40963924 -0.64471495 0.27543455
0.6104959 0.60961205 0.16933867 0.5470402 0.36028746 0.4097687 -0.19568574 -0.099598646
0.073932216 0.18936853 0.099251665 0.17730993 0.17915748 0.21376877 0.34905055 0.18182473
-0.6008308 0.061453447 -0.15875302 -0.14383553 0.15714215 0.13826735 0.28958097 1.3560671
0.53077734 0.13040087 0.1588237 0.6920611 0.96437967 0.29426733 0.30967283 0.23032619
0.3352284 0.31057146 0.6853025 0.0020741671 -0.26682636 0.60649014 0.20711918 -0.21782607
0.2094003 0.07713565 0.18071547 0.12897742 -0.15907878 0.78564334 0.16320811 -0.5261352
-0.23409408 0.2611037 -0.05922102 0.52683747 -0.06231141 -0.043077603 0.9752735 0.34280166
0.78728485 0.6597336 -0.016041111 0.2941985 0.42804557 0.23923622 0.2769757 0.1448013
0.3888645 0.18808475 0.17090923 -0.17730328 1.0090041 0.6744482 0.77440095 0.369071
0.11543298 0.48022443 0.17141354 0.3728435 0.64605004 0.38560134 0.23168778 0.21078332
0.13899708 0.11073026 1.0656955

batchnorm_9/mul f4 [1, 16, 1, 1]
00000000: c15b 7e3c 1664 b33b c4a4 5c3a d74d 223c
00000010: 5f24 033c 3cbc 4a3b 3973 863c 6f38 013b
00000020: 6716 b83b 00ea ad3b b147 463b 293f fa3b
00000030: bbe3 fb3b e4a4 a33b 359d db3b fce8 f33b
0.0155248055 0.0054745777 0.0008416886 0.009906254 0.008004277 0.003093495 0.016412364 0.0019717475
0.005617905 0.005307436 0.0030255134 0.007636924 0.0076870597 0.0049940217 0.00670209 0.0074435454

batchnorm_9/sub f4 [1, 16, 1, 1]
00000000: f4d1 85bf 8931 00bf 16cf 573e 26c6 2ebf
00000010: e954 bebe 7067 ea3d 58e8 38bd 349c d73e
00000020: f970 55bf 3594 27be b8fc c03e 5c38 0fbd
00000030: ab06 0dbe ceef 9d3f 67c0 57bf 647c 22bf
-1.0454698 -0.50075585 0.21075091 -0.682711 -0.37174156 0.114455104 -0.045143455 0.4211136
-0.8337551 -0.1636513 0.3769281 -0.034965858 -0.13772075 1.2338808 -0.8427796 -0.63471055

convolution_18_bias f4 [155]
00000000: 0000 0000 0000 0000 0000 0000 0000 0000
00000010: 0000 0000 0000 0000 0000 0000 0000 0000
00000020: 0000 0000 0000 0000 0000 0000 0000 0000
00000030: 0000 0000 0000 0000 0000 0000 0000 0000
00000040: 0000 0000 0000 0000 0000 0000 0000 0000
00000050: 0000 0000 0000 0000 0000 0000 0000 0000
00000060: 0000 0000 0000 0000 0000 0000 0000 0000
00000070: 0000 0000 0000 0000 0000 0000 0000 0000
00000080: 0000 0000 0000 0000 0000 0000 0000 0000
00000090: 0000 0000 0000 0000 0000 0000 0000 0000
000000a0: 0000 0000 0000 0000 0000 0000 0000 0000
000000b0: 0000 0000 0000 0000 0000 0000 0000 0000
000000c0: 0000 0000 0000 0000 0000 0000 0000 0000
000000d0: 0000 0000 0000 0000 0000 0000 0000 0000
000000e0: 0000 0000 0000 0000 0000 0000 0000 0000
000000f0: 0000 0000 0000 0000 0000 0000 0000 0000
00000100: 0000 0000 0000 0000 0000 0000 0000 0000
00000110: 0000 0000 0000 0000 0000 0000 0000 0000
00000120: 0000 0000 0000 0000 0000 0000 0000 0000
00000130: 0000 0000 0000 0000 0000 0000 0000 0000
00000140: 0000 0000 0000 0000 0000 0000 0000 0000
00000150: 0000 0000 0000 0000 0000 0000 0000 0000
00000160: 0000 0000 0000 0000 0000 0000 0000 0000
00000170: 0000 0000 0000 0000 0000 0000 0000 0000
00000180: 0000 0000 0000 0000 0000 0000 0000 0000
00000190: 0000 0000 0000 0000 0000 0000 0000 0000
000001a0: 0000 0000 0000 0000 0000 0000 0000 0000
000001b0: 0000 0000 0000 0000 0000 0000 0000 0000
000001c0: 0000 0000 0000 0000 0000 0000 0000 0000
000001d0: 0000 0000 0000 0000 0000 0000 0000 0000
000001e0: 0000 0000 0000 0000 0000 0000 0000 0000
000001f0: 0000 0000 0000 0000 0000 0000 0000 0000
00000200: 0000 0000 0000 0000 0000 0000 0000 0000
00000210: 0000 0000 0000 0000 0000 0000 0000 0000
00000220: 0000 0000 0000 0000 0000 0000 0000 0000
00000230: 0000 0000 0000 0000 0000 0000 0000 0000
00000240: 0000 0000 0000 0000 0000 0000 0000 0000
00000250: 0000 0000 0000 0000 0000 0000 0000 0000
00000260: 0000 0000 0000 0000 0000 0000
0.0 0.0 0.0 0.0 0.0 0.0 0.0 0.0
0.0 0.0 0.0 0.0 0.0 0.0 0.0 0.0
0.0 0.0 0.0 0.0 0.0 0.0 0.0 0.0
0.0 0.0 0.0 0.0 0.0 0.0 0.0 0.0
0.0 0.0 0.0 0.0 0.0 0.0 0.0 0.0
0.0 0.0 0.0 0.0 0.0 0.0 0.0 0.0
0.0 0.0 0.0 0.0 0.0 0.0 0.0 0.0
0.0 0.0 0.0 0.0 0.0 0.0 0.0 0.0
0.0 0.0 0.0 0.0 0.0 0.0 0.0 0.0
0.0 0.0 0.0 0.0 0.0 0.0 0.0 0.0
0.0 0.0 0.0 0.0 0.0 0.0 0.0 0.0
0.0 0.0 0.0 0.0 0.0 0.0 0.0 0.0
0.0 0.0 0.0 0.0 0.0 0.0 0.0 0.0
0.0 0.0 0.0 0.0 0.0 0.0 0.0 0.0
0.0 0.0 0.0 0.0 0.0 0.0 0.0 0.0
0.0 0.0 0.0 0.0 0.0 0.0 0.0 0.0
0.0 0.0 0.0 0.0 0.0 0.0 0.0 0.0
0.0 0.0 0.0 0.0 0.0 0.0 0.0 0.0
0.0 0.0 0.0 0.0 0.0 0.0 0.0 0.0
0.0 0.0 0.0

convolution_22_bias f4 [64]
00000000: 0000 0000 0000 0000 0000 0000 0000 0000
00000010: 0000 0000 0000 0000 0000 0000 0000 0000
00000020: 0000 0000 0000 0000 0000 0000 0000 0000
00000030: 0000 0000 0000 0000 0000 0000 0000 0000
00000040: 0000 0000 0000 0000 0000 0000 0000 0000
00000050: 0000 0000 0000 0000 0000 0000 0000 0000
00000060: 0000 0000 0000 0000 0000 0000 0000 0000
00000070: 0000 0000 0000 0000 0000 0000 0000 0000
00000080: 0000 0000 0000 0000 0000 0000 0000 0000
00000090: 0000 0000 0000 0000 0000 0000 0000 0000
000000a0: 0000 0000 0000 0000 0000 0000 0000 0000
000000b0: 0000 0000 0000 0000 0000 0000 0000 0000
000000c0: 0000 0000 0000 0000 0000 0000 0000 0000
000000d0: 0000 0000 0000 0000 0000 0000 0000 0000
000000e0: 0000 0000 0000 0000 0000 0000 0000 0000
000000f0: 0000 0000 0000 0000 0000 0000 0000 0000
0.0 0.0 0.0 0.0 0.0 0.0 0.0 0.0
0.0 0.0 0.0 0.0 0.0 0.0 0.0 0.0
0.0 0.0 0.0 0.0 0.0 0.0 0.0 0.0
0.0 0.0 0.0 0.0 0.0 0.0 0.0 0.0
0.0 0.0 0.0 0.0 0.0 0.0 0.0 0.0
0.0 0.0 0.0 0.0 0.0 0.0 0.0 0.0
0.0 0.0 0.0 0.0 0.0 0.0 0.0 0.0
0.0 0.0 0.0 0.0 0.0 0.0 0.0 0.0

convolution_26_bias f4 [32]
00000000: 0000 0000 0000 0000 0000 0000 0000 0000
00000010: 0000 0000 0000 0000 0000 0000 0000 0000
00000020: 0000 0000 0000 0000 0000 0000 0000 0000
00000030: 0000 0000 0000 0000 0000 0000 0000 0000
00000040: 0000 0000 0000 0000 0000 0000 0000 0000
00000050: 0000 0000 0000 0000 0000 0000 0000 0000
00000060: 0000 0000 0000 0000 0000 0000 0000 0000
00000070: 0000 0000 0000 0000 0000 0000 0000 0000
0.0 0.0 0.0 0.0 0.0 0.0 0.0 0.0
0.0 0.0 0.0 0.0 0.0 0.0 0.0 0.0
0.0 0.0 0.0 0.0 0.0 0.0 0.0 0.0
0.0 0.0 0.0 0.0 0.0 0.0 0.0 0.0

convolution_32_bias f4 [16]
00000000: 0000 0000 0000 0000 0000 0000 0000 0000
00000010: 0000 0000 0000 0000 0000 0000 0000 0000
00000020: 0000 0000 0000 0000 0000 0000 0000 0000
00000030: 0000 0000 0000 0000 0000 0000 0000 0000
0.0 0.0 0.0 0.0 0.0 0.0 0.0 0.0
0.0 0.0 0.0 0.0 0.0 0.0 0.0 0.0

convolution_33_bias f4 [16]
00000000: b959 be3d 118e 52bd 7dda 3b3d bac2 813d
00000010: aba9 0abd 0e19 553c 254f 123d f02b 813d
00000020: 981c 32bd 46f5 cf3d 1cef e3bb fedf 80bb
00000030: 7b63 383c c7d5 033e 813c f5bc 99fe 01be
0.09294457 -0.051405016 0.045862664 0.06335969 -0.033853214 0.013006462 0.03572001 0.063072085
-0.0434843 0.10154204 -0.0069559943 -0.003932952 0.011254187 0.12874518 -0.029936077 -0.12694778

convolution_34_bias f4 [16]
00000000: b85c 253f 1862 253e 8495 4dbd de9d aabd
00000010: 7e36 6abe 211c 1c3e 52b4 68be 6495 87be
00000020: 3001 97be 84dc 03bd da2b cb3e c25d a13e
00000030: 0453 1dbe 9ee8 853e eb47 833c 474f 5bbe
0.645946 0.16150701 -0.050191417 -0.08330892 -0.2287235 0.15245105 -0.22725037 -0.26481164
-0.29493093 -0.032192722 0.39681894 0.31516844 -0.15363699 0.26154035 0.016025504 -0.2141696

convolution_35_bias f4 [16]
00000000: 00e6 8c3e 485b 97bf bfcf 8dbf 57b3 2abf
00000010: 512b 283f eb7b e13e 81d9 16bf 37ae f1bf
00000020: 7bcc 363f 7339 45be 0fde 87be b820 253f
00000030: 988c 153e 532c 3cbd 606c 9e3f c103 d4bd
0.27519226 -1.1824732 -1.1079024 -0.666799 0.65691096 0.44039854 -0.58925635 -1.8881291
0.7140576 -0.19260196 -0.26536605 0.6450305 0.14604414 -0.04594071 1.2376823 -0.103522785

convolution_bias f4 [16]
00000000: d512 69be 030f b53e ef8d 9cbd 2f5d b2be
00000010: 408f fd3e 11ba cabc 3a73 d3bc 4f28 cf3e
00000020: fbbb 95be 5840 ef3d 1614 6cbd d8a1 a9bd
00000030: 1b06 aa3e 1cac 8f3e f418 48be 7626 f4bd
-0.2276109 0.35363016 -0.07644259 -0.34836718 0.49523354 -0.024746927 -0.02581178 0.4046044
-0.2924498 0.116821945 -0.057636343 -0.08282822 0.33207783 0.28060997 -0.19540769 -0.11921398

split f4 [1, 5, 5, 16]
00000000: 5a74 76be 3174 1fbe 6e85 35bd eb42 2c3e
00000010: 7b4b 853e 92c1 febc 53a4 443d 7571 b63d
00000020: 85b5 573e db90 df3d c42d fa3c c5d0 5dbe
00000030: 737d 7cbe ff38 933e 2cc7 ce3d ce50 a0bc
00000040: e9c6 63be 4aab 2cbc 9d96 03bd c9a4 d83d
00000050: 853e c8be afe4 ca3d b706 1a3e 99eb a13e
00000060: ae8e c83e 254b 07be d5cc 223e 5feb 2b3e
00000070: 5513 5abe e13c d0be 1164 a23e cfb0 a4bd
00000080: 86f2 90be 8780 43be 5f5b c6bd d0a0 0fbd
00000090: 995b 843d d86b 2dbe 20f6 1c3e a17f c83e
000000a0: a41a 2fbe 1868 35bd ddd1 cb3e 6165 1bbe
000000b0: da00 29be 60e8 a6be bb61 9b3e e5b7 c2bd
000000c0: f2cf 29be afca d9bd 89f0 cdbd e807 0f3d
000000d0: ea74 ad3d 756d 6cbd 26ff 093e 70cf e33e
000000e0: 69ef 0bbe 3ad8 61bd 52dc 9b3e c611 52bd
000000f0: 17bb 713d 0737 ad3d 9336 c73e 53ea 72bd
00000100: 765b 1ebe 10cd 5abc 8fb8 bd3d 4868 39be
00000110: 4029 823d 65fc acbd d1f0 1b3e 53a1 0c3e
00000120: e52f 4ebd 4284 8cbc 812a 913e 7abf 9f3c
00000130: 65a0 043e d942 88be 8164 333e 4299 20bd
00000140: aba3 02be 031b 323c 46db 93be 8c42 ec3d
00000150: 7642 9bbe 41cb 3fbe 7960 d03b 6ff7 8a3e
00000160: bb62 1b3f 107e 653c eb9d 053e 52f0 b13a
00000170: 621c d3be bdb1 113e f4b8 0a3e 3ce2 65bd
00000180: bb33 f7be 9b78 8f3e 030d 5ebe e3f7 323f
00000190: 8411 22c0 a990 aabe 35f3 483e 3deb fb3e
000001a0: db6f 693f 9f8a 333e 5bca 443d 1a61 93bd
000001b0: c626 0dbf 904b dbbe 71e0 303e 6d12 a6be
000001c0: 9a00 1abe 02c9 c9be 0748 debe 7215 f63e
000001d0: 8a16 51bf 47e4 a8bf 5118 73be 2fcd 1b3f
000001e0: 0511 7f3e 7342 143d db18 cd3e caf6 d2bd
000001f0: 5990 e8bd d1ae 6e3e 3116 3d3f 93ed 7dbd
00000200: 19e8 0cbe 2592 94be 5eb8 a5be 7554 b4be
00000210: 48bf 9abe 3658 f33d ab1f b2bc c0cd 0f3f
00000220: 1e66 6fbe 3e17 423e 9e59 393e 4713 533e
00000230: 62d2 273e 3755 863e c476 2c3f 7833 0e3d
00000240: 87c1 31be 4c62 9bbd 822a 5abe 5669 87bd
00000250: b903 133d 1e6b a13e aff0 28bd db55 923e
00000260: b43c c0bd 3563 073e 7169 c83d f795 713d
00000270: 3aef d93d 1006 04be 8e39 5a3e 1800 a2bb
00000280: e1e2 503e 03aa 823d 07c0 d3bd 10a1 623e
00000290: 23b6 993d a9fe 6d3e 7abe c93d 7f25 3b3e
000002a0: 194f 153f 6961 e6bd 5cfe 4bbe 4baa 363e
000002b0: 5846 1cbf 0952 603f ee9a 2bbe 302a dcbc
000002c0: 8220 f13c 463c 6dbd 5e6e 8fbe a50a 0c3f
000002d0: 2543 2dbf 5a8e 49bc f0cc 1dbf a7f6 d03e
000002e0: df44 93bf 838a cd3d fd6a 103e bffd 053d
000002f0: ce29 63bf bb68 0f3f e92e 7abe 2f9c 283e
00000300: 2599 ccbe 0319 b7be 7071 85be 6bd7 293e
00000310: f857 38bf d85f 06bf a610 02c0 86fa 353f
00000320: 88b9 9abe 7459 06be 4fc1 ca3e bf33 323e
00000330: dca8 033e 8274 fdbd 4155 aebe 0a40 e93f
00000340: 19c4 e9bd 83b3 03be 2cfb 053f ab8a f7be
00000350: 379c b4bc 368b 22bd 5d33 a0bc 338b 703e
00000360: 4e4b 933c 1cfa 99bd 1015 a73e e7c4 793d
00000370: 8d8c 733e fa93 983e f30e d63e 1354 cebe
00000380: c57d 96bd cdc1 453f ad85 a93e 3c0b c8be
00000390: 2a66 7c3e 5555 a3bb 1584 ca3c 47bb 5e3e
000003a0: 83c4 ebbd d68b 893d 46f9 993c 11d4 943d
000003b0: 0cdc 203e 4ae0 7d3e 5a45 b83e 3693 db3b
000003c0: 5930 163f c46a 063e 0fbd 12be 88a7 db3d
000003d0: 2053 4b3d bdf7 d63e 5850 033e 51ed 953e
000003e0: 6f87 c93e aedf a03d 5bf1 a5be e3bd afbd
000003f0: d8bc 30bd 25aa b93f 4073 80bd fb68 123d
-0.24067822 -0.15571667 -0.0443167 0.16822402 0.2603415 -0.03109816 0.048008274 0.08908359
0.21065338 0.10916301 0.0305394 -0.2166167 -0.2465723 0.28754422 0.10096583 -0.01956978
-0.22243847 -0.010538885 -0.032126058 0.10578305 -0.391102 0.09906899 0.15041624 0.3162506
0.39171356 -0.13212259 0.1589845 0.16789006 -0.21296437 -0.40671447 0.3171697 -0.08041536
-0.2831003 -0.19091998 -0.096853964 -0.035065472 0.06462783 -0.1693567 0.15328264 0.39159873
-0.17100006 -0.044288725 0.3980855 -0.15175392 -0.16504231 -0.32599163 0.30348 -0.09507731
-0.16583231 -0.10634362 -0.10055644 0.03491965 0.08469565 -0.057721574 0.13476238 0.444942
-0.13665546 -0.05513785 0.3044153 -0.05128648 0.059016313 0.08457761 0.38908824 -0.0593055
-0.15464577 -0.013354555 0.092637174 -0.18106186 0.06355524 -0.08446578 0.15228583 0.13733415
-0.050338645 -0.01715291 0.2835274 0.019500483 0.1295181 -0.266135 0.17518808 -0.039208658
-0.12757747 0.010870698 -0.2887823 0.1153613 -0.30324143 -0.18729879 0.0063591567 0.27141902
0.60697526 0.014007106 0.13048522 0.0013575649 -0.41232592 0.14227958 0.13547117 -0.056123957
-0.48281655 0.28021702 -0.21684651 0.69909495 -2.532319 -0.33313492 0.19624026 0.4920291
0.911863 0.17533349 0.048044544 -0.07196255 -0.5513729 -0.42831087 0.17273118 -0.32435933
-0.15039292 -0.3941117 -0.43414328 0.48063236 -0.81675017 -1.3194665 -0.23739745 0.6085996
0.24908836 0.036196183 0.40058026 -0.103009775 -0.11355657 0.23308875 0.73861986 -0.061994147
-0.13760413 -0.2901775 -0.32367224 -0.35220686 -0.3022406 0.11882059 -0.021743616 0.56173325
-0.23378798 0.18954179 0.18100592 0.20612822 0.16388848 0.2623689 0.6736872 0.034717053
-0.17358981 -0.07587108 -0.21305278 -0.06611888 0.035892222 0.31527036 -0.04124516 0.28581128
-0.09386578 0.13221438 0.09785736 0.05898091 0.10641332 -0.12892938 0.21311018 -0.004943859
0.20399047 0.063800834 -0.10339361 0.22131753 0.07505443 0.23241676 0.09850784 0.18276022
0.5832382 -0.11249048 -0.19921249 0.17838399 -0.61044836 0.87625176 -0.1675832 -0.026875585
0.029434446 -0.05791881 -0.2801389 0.5470374 -0.6768058 -0.012302006 -0.61640835 0.4081318
-1.1505393 0.10036185 0.14103313 0.032712694 -0.88735664 0.5601918 -0.24431957 0.1646583
-0.3996059 -0.3576127 -0.26063108 0.16586082 -0.7200923 -0.52489996 -2.0322661 0.71085393
-0.30219674 -0.13120061 0.39600608 0.17402552 0.12857383 -0.12375738 -0.3404942 1.8222668
-0.11414356 -0.12861447 0.5233638 -0.48347983 -0.022047145 -0.039683543 -0.019555742 0.234906
0.017980244 -0.07518408 0.32633257 0.060978796 0.23784085 0.29800397 0.4180828 -0.4029852
-0.073482074 0.7724884 0.331098 -0.3907107 0.24648347 -0.0049845376 0.024721185 0.21751128
-0.11512091 0.06716125 0.01879562 0.07267011 0.15708941 0.2479259 0.3599041 0.0067008985
0.5866752 0.13126665 -0.14329933 0.107253134 0.04963982 0.41985884 0.12823617 0.2928262
0.3936114 0.078551635 -0.32410702 -0.0858114 -0.043148845 1.4505049 -0.06271982 0.03574465

split_10 i1 [16, 3, 3, 16] scale=0.012337463 zero_point=0
00000000: f1eb f7f3 12ce f9f5 f010 eff4 b6e1 f6ed
00000010: fafa 08f9 2608 07fd 0a0a 04ff 29fe 0a13
00000020: 0a09 fcfa 13f9 05f9 1602 f8fc fdf4 09f3
00000030: f3f0 1ad5 1dc4 e3f5 ecff f2ee c8f0 f600
00000040: 09e8 2b08 0d0c cf08 eb05 07ff 10fd e911
00000050: 270d fb0b 0301 f603 f702 f119 e6f4 1c07
00000060: eff5 f5e3 03d2 e6fd d707 ff03 e1f1 fade
00000070: f0fb f103 cae5 d905 f2fb 1513 14f1 020e
00000080: 1017 f4fc d31f fe06 1afd f622 f0ff 0aef
00000090: 1313 21f6 1a28 071b 15ed 08f8 5110 0e0f
000000a0: 36fe 0916 ff15 fb14 05ef 09f3 050a fa07
000000b0: 0801 1e06 15fe 0214 15fe 0b07 15f9 0406
000000c0: e6fe fede f320 fa20 09f3 00f4 1317 2002
000000d0: e0e4 eb1a 90cd e613 f4ed edfd f8f7 0704
000000e0: ebfa f5fd cefe f316 12fc 0016 d6f2 04f5
000000f0: 080b 03f9 fb0d 0b13 02fa 01fb 2209 090b
-0.18506195 -0.25908673 -0.111037165 -0.16038702 0.22207433 -0.61687315 -0.08636224 -0.13571209
-0.19739941 0.19739941 -0.20973687 -0.14804956 -0.9129723 -0.38246134 -0.123374626 -0.23441179
-0.07402478 -0.07402478 0.098699704 -0.08636224 0.46882358 0.098699704 0.08636224 -0.03701239
0.123374626 0.123374626 0.049349852 -0.012337463 0.505836 -0.024674926 0.123374626 0.23441179
0.123374626 0.111037165 -0.049349852 -0.07402478 0.23441179 -0.08636224 0.061687313 -0.08636224
0.27142417 0.024674926 -0.098699704 -0.049349852 -0.03701239 -0.14804956 0.111037165 -0.16038702
-0.16038702 -0.19739941 0.32077405 -0.5305109 0.35778642 -0.7402478 -0.35778642 -0.13571209
-0.24674925 -0.012337463 -0.17272449 -0.22207433 -0.69089794 -0.19739941 -0.123374626 0.0
0.111037165 -0.29609913 0.5305109 0.098699704 0.16038702 0.14804956 -0.6045357 0.098699704
-0.25908673 0.061687313 0.08636224 -0.012337463 0.19739941 -0.03701239 -0.28376165 0.20973687
0.48116106 0.16038702 -0.061687313 0.13571209 0.03701239 0.012337463 -0.123374626 0.03701239
-0.111037165 0.024674926 -0.18506195 0.30843657 -0.32077405 -0.14804956 0.34544897 0.08636224
-0.20973687 -0.13571209 -0.13571209 -0.35778642 0.03701239 -0.5675233 -0.32077405 -0.03701239
-0.505836 0.08636224 -0.012337463 0.03701239 -0.38246134 -0.18506195 -0.07402478 -0.41947374
-0.19739941 -0.061687313 -0.18506195 0.03701239 -0.666223 -0.3331115 -0.48116106 0.061687313
-0.17272449 -0.061687313 0.25908673 0.23441179 0.24674925 -0.18506195 0.024674926 0.17272449
0.19739941 0.28376165 -0.14804956 -0.049349852 -0.55518585 0.38246134 -0.024674926 0.07402478
0.32077405 -0.03701239 -0.123374626 0.41947374 -0.19739941 -0.012337463 0.123374626 -0.20973687
0.23441179 0.23441179 0.4071363 -0.123374626 0.32077405 0.4934985 0.08636224 0.3331115
0.25908673 -0.23441179 0.098699704 -0.098699704 0.9993345 0.19739941 0.17272449 0.18506195
0.666223 -0.024674926 0.111037165 0.27142417 -0.012337463 0.25908673 -0.061687313 0.24674925
0.061687313 -0.20973687 0.111037165 -0.16038702 0.061687313 0.123374626 -0.07402478 0.08636224
0.098699704 0.012337463 0.3701239 0.07402478 0.25908673 -0.024674926 0.024674926 0.24674925
0.25908673 -0.024674926 0.13571209 0.08636224 0.25908673 -0.08636224 0.049349852 0.07402478
-0.32077405 -0.024674926 -0.024674926 -0.41947374 -0.16038702 0.39479882 -0.07402478 0.39479882
0.111037165 -0.16038702 0.0 -0.14804956 0.23441179 0.28376165 0.39479882 0.024674926
-0.39479882 -0.34544897 -0.25908673 0.32077405 -1.3817959 -0.6292106 -0.32077405 0.23441179
-0.14804956 -0.23441179 -0.23441179 -0.03701239 -0.098699704 -0.111037165 0.08636224 0.049349852
-0.25908673 -0.07402478 -0.13571209 -0.03701239 -0.61687315 -0.024674926 -0.16038702 0.27142417
0.22207433 -0.049349852 0.0 0.27142417 -0.51817346 -0.17272449 0.049349852 -0.13571209
0.098699704 0.13571209 0.03701239 -0.08636224 -0.061687313 0.16038702 0.13571209 0.23441179
0.024674926 -0.07402478 0.012337463 -0.061687313 0.41947374 0.111037165 0.111037165 0.13571209

split_12 i1 [16, 3, 3, 16] scale=0.008380452 zero_point=0
00000000: e5f9 0612 fde6 ebdc fce6 effa 1e00 f4f9
00000010: f2f7 2016 1625 efe4 08c0 fff9 23ef e2e8
00000020: 1f08 f901 e5fa f1df 0f9b 10e0 1006 f4db
00000030: eced 391f d0dc 0f25 f8d5 e209 2908 fb04
00000040: f122 0c50 fc19 f426 febd 0eed 190e affb
00000050: 191d f31e e133 0024 f29e 0314 2f12 dbd8
00000060: e4e7 28f4 d9dd f1e5 ffe6 e612 0501 060f
00000070: dfe8 160a e903 05fa 07da 02fc 0008 dd1c
00000080: 0220 e00a d41f fdf5 ffbb 06f5 190f d02a
00000090: f319 d7f1 eee2 24ed f5f7 e4f2 fb06 07e6
000000a0: fb0e fdcd ef02 ff3b 0637 e912 132e 1af7
000000b0: 3702 f5d1 fb1f e5cc 0721 ea0a d327 00e3
000000c0: 0e27 e8dd 1ff2 12fa edf0 fdf5 0e10 2f0d
000000d0: 0d0d 26bd f809 302c e407 d50d f604 7f39
000000e0: 38f8 1ab0 0421 f8e5 f207 fee9 e922 1012
000000f0: 0720 cbf3 0cf2 feed ef03 f8ef 040a 1e19
-0.22627221 -0.058663167 0.050282713 0.15084814 -0.025141357 -0.21789175 -0.1759895 -0.30169627
-0.03352181 -0.21789175 -0.14246769 -0.050282713 0.25141355 0.0 -0.100565426 -0.058663167
-0.117326334 -0.07542407 0.26817447 0.18436995 0.18436995 0.31007674 -0.14246769 -0.23465267
0.06704362 -0.53634894 -0.008380452 -0.058663167 0.29331583 -0.14246769 -0.25141355 -0.20113085
0.25979403 0.06704362 -0.058663167 0.008380452 -0.22627221 -0.050282713 -0.12570678 -0.2765549
0.12570678 -0.84642565 0.13408723 -0.26817447 0.13408723 0.050282713 -0.100565426 -0.31007674
-0.16760904 -0.1592286 0.47768578 0.25979403 -0.4022617 -0.30169627 0.12570678 0.31007674
-0.06704362 -0.36035943 -0.25141355 0.07542407 0.34359854 0.06704362 -0.04190226 0.03352181
-0.12570678 0.28493538 0.100565426 0.67043614 -0.03352181 0.20951131 -0.100565426 0.3184572
-0.016760904 -0.5614903 0.117326334 -0.1592286 0.20951131 0.117326334 -0.6788166 -0.04190226
0.20951131 0.24303311 -0.10894588 0.25141355 -0.25979403 0.42740306 0.0 0.30169627
-0.117326334 -0.8212843 0.025141357 0.16760904 0.39388126 0.15084814 -0.31007674 -0.33521807
-0.23465267 -0.20951131 0.33521807 -0.100565426 -0.32683763 -0.29331583 -0.12570678 -0.22627221
-0.008380452 -0.21789175 -0.21789175 0.15084814 0.04190226 0.008380452 0.050282713 0.12570678
-0.2765549 -0.20113085 0.18436995 0.08380452 -0.1927504 0.025141357 0.04190226 -0.050282713
0.058663167 -0.3184572 0.016760904 -0.03352181 0.0 0.06704362 -0.29331583 0.23465267
0.016760904 0.26817447 -0.26817447 0.08380452 -0.3687399 0.25979403 -0.025141357 -0.092184976
-0.008380452 -0.5782512 0.050282713 -0.092184976 0.20951131 0.12570678 -0.4022617 0.351979
-0.10894588 0.20951131 -0.34359854 -0.12570678 -0.15084814 -0.25141355 0.30169627 -0.1592286
-0.092184976 -0.07542407 -0.23465267 -0.117326334 -0.04190226 0.050282713 0.058663167 -0.21789175
-0.04190226 0.117326334 -0.025141357 -0.42740306 -0.14246769 0.016760904 -0.008380452 0.49444667
0.050282713 0.46092486 -0.1927504 0.15084814 0.1592286 0.3855008 0.21789175 -0.07542407
0.46092486 0.016760904 -0.092184976 -0.39388126 -0.04190226 0.25979403 -0.22627221 -0.4357835
0.058663167 0.2765549 -0.18436995 0.08380452 -0.37712035 0.32683763 0.0 -0.24303311
0.117326334 0.32683763 -0.20113085 -0.29331583 0.25979403 -0.117326334 0.15084814 -0.050282713
-0.1592286 -0.13408723 -0.025141357 -0.092184976 0.117326334 0.13408723 0.39388126 0.10894588
0.10894588 0.10894588 0.3184572 -0.5614903 -0.06704362 0.07542407 0.4022617 0.3687399
-0.23465267 0.058663167 -0.36035943 0.10894588 -0.08380452 0.03352181 1.0643175 0.47768578
0.46930534 -0.06704362 0.21789175 -0.67043614 0.03352181 0.2765549 -0.06704362 -0.22627221
-0.117326334 0.058663167 -0.016760904 -0.1927504 -0.1927504 0.28493538 0.13408723 0.15084814
0.058663167 0.26817447 -0.44416398 -0.10894588 0.100565426 -0.117326334 -0.016760904 -0.1592286
-0.14246769 0.025141357 -0.06704362 -0.14246769 0.03352181 0.08380452 0.25141355 0.20951131
